ia 2.0/TreinoData.pth (torch, 3439 bytes, 6 tensors)

l1.weight f4 [8, 19]
000000 67 9e bf 3e d5 cf b2 3e e4 ce 91 be 43 ac 9e 3e
       0.3742554 0.34924188 -0.28478158 0.309908
000010 57 52 0f 3f b4 df 94 be 75 f8 94 be a1 ab 7c 3e
       0.55985016 -0.29076922 -0.29095808 0.24674846
000020 5f 31 fb 3e 47 14 8f be d0 3d 25 3f 22 27 22 3f
       0.49061105 -0.27945158 0.64547443 0.6334096
000030 c2 0e c8 bb b0 2b a5 3e a4 5b 18 3f b7 e0 94 be
       -0.006105275 0.32259893 0.5951483 -0.29077694
000040 fa 3a 96 3e bf 00 2f 3f 74 e3 ed 3d 92 1d 05 be
       0.2934187 0.68360513 0.11615649 -0.12999561
000050 71 75 18 bf 3d 67 9e 3e db ef c1 3e 30 75 c8 3e
       -0.595542 0.3093814 0.37878308 0.39151907
000060 c4 6e ef bd 8c 37 ec 3e 0e 2f c2 bd d0 87 c2 bd
       -0.11691049 0.4613613 -0.09481631 -0.094985604
000070 27 7b 8b 3e 53 34 00 3f 30 34 c2 bd 4b 00 28 3e
       0.27242395 0.5007984 -0.0948261 0.16406362
000080 63 33 c2 bd 6c 2b c2 bd fa f0 07 be af 25 53 3e
       -0.094824575 -0.09480938 -0.13275519 0.20619844
000090 21 55 8c 3e eb 90 c4 3e c3 98 29 be dc 69 28 be
       0.27408698 0.38391814 -0.1656218 -0.16446632
0000a0 c3 55 e3 bd 45 17 60 3e c4 1d ff bd 99 d4 6c bd
       -0.11100342 0.21883877 -0.12456849 -0.057819936
0000b0 3e d2 6c bd e6 ec 04 3f 23 f1 51 be 4c d9 6c bd
       -0.05781769 0.5192398 -0.20502143 -0.057824418
0000c0 72 f8 e1 bd 48 c5 18 3f 92 8f f5 3c 1b 6a 59 be
       -0.11033715 0.5967603 0.029975686 -0.21231882
0000d0 10 c3 4e be 7d ce 6c bd 67 10 65 be a0 fe 9f bc
       -0.20191598 -0.05781411 -0.22369538 -0.019530594
0000e0 1a 5f 3e 3e b4 15 ed be 69 42 bc be 0b ec 74 3e
       0.18590966 -0.4630562 -0.36769417 0.23918168
0000f0 a1 58 53 3e a6 c6 0a 3f ce 74 e0 3e 18 39 9a 3e
       0.20639278 0.54209363 0.43839115 0.30121684
000100 3b 14 ed be da 16 ed be d3 54 04 3f ec 59 9b 3e
       -0.46304497 -0.46306497 0.5169193 0.30342042
000110 25 60 7a be 39 e2 89 3e ba 1a ed be ae 13 ed be
       -0.24450739 0.26930407 -0.46309453 -0.46304077
000120 fb cf bf 3e 27 a3 f5 3e ff 16 02 3f 59 f3 85 3e
       0.37463364 0.47976038 0.5081634 0.26162222
000130 6b c9 fc 3d e2 ae 01 3f c2 74 e0 3d 1d c6 5b be
       0.12343105 0.50657475 0.1095977 -0.21462293
000140 3c 53 cc be 0d c0 8d 3e 0e 99 0b 3f 33 fd 7c 3e
       -0.39907253 0.27685586 0.5453042 0.24705963
000150 dd 11 f8 3e 6a 41 a5 3e 2a fc e9 bd fc 19 f8 3d
       0.4845113 0.3227647 -0.114250496 0.12114331
000160 d1 4d a1 3e 18 0d c2 3e ca 89 07 3e 67 53 a4 3e
       0.31504682 0.37900615 0.13236156 0.3209488
000170 3d db 3c be 48 1c ea bd 1a b7 f5 bb da c1 86 be
       -0.18443008 -0.114311755 -0.007498634 -0.26319772
000180 d3 b9 18 bf 83 ce 13 bd fe 21 ba 3e b7 d9 0c 3f
       -0.59658545 -0.036085617 0.3635406 0.55019706
000190 11 c2 86 be d1 9e 4c be 6e cb 4f be 3d c2 86 be
       -0.26319936 -0.19982459 -0.20292446 -0.26320067
0001a0 1d c8 86 be bd e1 01 3f 10 28 4d be 08 9f a8 bd
       -0.2632455 0.50735074 -0.20034814 -0.08233458
0001b0 bf c1 86 be 24 25 87 be 1d c2 86 be ad f9 da 3d
       -0.26319692 -0.26395524 -0.26319972 0.10692153
0001c0 bd 7e 3a 3e 39 f9 e2 3e 88 17 07 bf f3 d0 21 be
       0.1821241 0.44330767 -0.5277028 -0.15802364
0001d0 7b cc ac 3e ca 32 35 be aa ec 63 be 7b 46 26 3f
       0.33749756 -0.17695156 -0.22258249 0.64951295
0001e0 e2 54 32 3f c5 38 c9 be db 70 fd be e4 54 32 3f
       0.6966077 -0.39301124 -0.49500164 0.6966078
0001f0 19 49 bd be dd 72 8c be 05 40 18 3f 44 18 07 bf
       -0.36969832 -0.27431384 0.59472686 -0.527714
000200 9c 18 07 bf b2 4e 29 3f fd cb 9a 3c 32 39 9c be
       -0.52771926 0.66135705 0.018896097 -0.30512387
000210 4e 13 be bd 8f fc 21 3f ba 5a 06 3f ec e1 e5 bd
       -0.09281026 0.63276 0.5248219 -0.11224732
000220 5e 53 a5 be c6 8f a0 be db d2 f1 be 0e da 15 bf
       -0.32290167 -0.3135969 -0.47231182 -0.5853585
000230 00 73 13 3f 2c c3 cb 3e 3d d9 15 bf e8 d8 cc 3d
       0.5759735 0.39797342 -0.58534604 0.10002309
000240 a9 6f 1d 3f e5 36 f2 be 52 23 f5 3e f0 27 00 3f
       0.61498505 -0.47307506 0.4787851 0.5006094
000250 9f d9 15 bf c5 12 a5 be 3e 65 8e be 53 89 b4 be
       -0.5853519 -0.32240883 -0.27811617 -0.3526102

l1.bias f4 [8]
000000 6c de 94 3e 10 25 c2 3d 49 be 6c 3d c0 16 ed 3e
       0.29075944 0.09479725 0.057798658 0.4630642
000010 39 6b 03 3f ad c1 86 3e 71 18 07 3f 84 da 15 3f
       0.51335484 0.26319638 0.5277167 0.58536553

l2.weight f4 [8, 8]
000000 f0 69 64 3f 1e e9 5f be 99 29 02 3f 48 a0 b8 be
       0.8922415 -0.21866271 0.50844723 -0.36059785
000010 c3 3e d5 3c a2 9b d0 3d dd 13 11 bf e8 35 fa 3e
       0.026030904 0.101859346 -0.56670934 0.48869252
000020 56 02 2e bf 1f 03 7d 3d a2 c5 95 be de 62 72 3e
       -0.67972314 0.061770555 -0.29252344 0.23670527
000030 62 42 2a 3e 7e 09 23 bf b7 df 2c 3f 1c 3d 2a bf
       0.16626886 -0.6368636 0.6752886 -0.66499496
000040 b5 87 43 bf 35 8e a5 3e 21 f5 b7 be 82 6f 16 3f
       -0.7637895 0.32335058 -0.35929206 0.587639
000050 f3 60 99 be 99 23 1a 3f 5b cb 38 3f 2e d3 5d bf
       -0.2995678 0.6021057 0.72185296 -0.8665036
000060 85 7a ef be 10 aa ff be 2e 37 d6 3d 33 07 40 3d
       -0.46773162 -0.49934435 0.104597434 0.046881866
000070 81 56 3b 3f b6 67 90 be 8a 64 73 3f 92 8f 2d be
       0.7317887 -0.28204125 0.95075285 -0.16949299
000080 6a 5e 9a bb 84 62 db 3e 3e 48 53 be 23 1d 6a 3f
       -0.004710962 0.428486 -0.20633027 0.9145071
000090 42 44 34 bf 17 b3 1a 3f 59 ca 4a 3f 71 d7 29 bf
       -0.70416653 0.6042952 0.7921501 -0.6634436
0000a0 4c c2 1a bf 5c 83 8f be 87 74 ea 3e 98 e2 46 be
       -0.60452724 -0.28029907 0.45792028 -0.19422376
0000b0 0f df 7d 3f 4a bd ce be 5c f9 bc 3e a0 62 3e 3f
       0.99168485 -0.4037879 0.36908996 0.7436924
0000c0 d9 5a dd be 3b b1 17 3f 2e 83 0e bf 03 5a f2 3e
       -0.43233374 0.5925481 -0.55668914 0.47334298
0000d0 f9 c1 d4 bc 59 02 b4 bd 4f 49 47 3f ca 42 65 bf
       -0.0259714 -0.0878951 0.77846235 -0.8955504
0000e0 8a c8 a9 be 7b e3 29 bf 9d b7 07 3e 78 8e 1a bf
       -0.33160812 -0.6636273 0.13253637 -0.6037364
0000f0 0f c0 49 3f 22 d0 23 bf bb 02 ce 3e 3b 46 f5 3e
       0.78808683 -0.6398946 0.40236458 0.47905144

l2.bias f4 [8]
000000 c7 8c 1e 3e fc e4 65 bc 81 a5 1a be c5 07 00 3f
       0.1548339 -0.014031645 -0.15102197 0.50011855
000010 00 d2 3d 3e db 6a 4e 3e be 1c 63 3e 2f 2a 7e 3e
       0.1853714 0.2015795 0.22178933 0.2482078

l3.weight f4 [3, 8]
000000 fc a7 1c 3f 5e c8 26 bf f9 76 03 bf cc 85 29 be
       0.61193824 -0.65149486 -0.5135341 -0.16554946
000010 9b 1b 24 bf ff 0e 02 3f a0 78 6a bf fd d8 3d 3f
       -0.6410462 0.5080413 -0.9159031 0.7415922
000020 46 e6 31 bf 0d 22 1d 3f 37 3a 21 3f 73 01 95 3e
       -0.69491994 0.6138008 0.62979454 0.29102668
000030 51 c2 99 3e b9 b4 b8 3e b3 68 ce 3e 4b 38 25 3f
       0.30031064 0.3607538 0.40314254 0.6453902
000040 49 c3 cb 3d ea 3f 13 bf db 96 b4 3e 02 b8 1c bf
       0.09949357 -0.575194 0.35271344 -0.61218274
000050 ef c3 81 3e 69 01 5a bf fc 09 51 be 83 cc 39 bf
       0.25344798 -0.851584 -0.20413965 -0.72577685

l3.bias f4 [3]
000000 d3 0e e0 3d d0 1b ee bd e9 ff 88 be
       0.109403275 -0.116263986 -0.26757744
